…
ropout(rate = 0.4))\nNNmodel.add(tf.keras.layers.Dense(128,activation=tf.nn.relu))\nNNmodel.add(tf.keras.layers.Dropout(rate = 0.2))\nNNmodel.add(tf.keras.layers.Dense(64,activation=tf.nn.relu, kernel_regularizer = tf.keras.regularizers.l1(0.0005)))\nNNmodel.add(tf.keras.layers.Dense(10,activation=tf.nn.softmax))\n\n\n\n\n\nNNmodel.summary()\nModel: \"sequential_1\"\n_________________________________________________________________\n Layer (type)                Output Shape              Param #   \n=================================================================\n conv2d_3 (Conv2D)           (None, 24, 24, 20)        520       \n                                                                 \n conv2d_4 (Conv2D)           (None, 23, 23, 20)        1620      \n                                                                 \n max_pooling2d_2 (MaxPooling  (None, 11, 11, 20)       0         \n 2D)                                                             \n                                                                 \n conv2d_5 (Conv2D)           (None, 10, 10, 50)        4050      \n                                                                 \n max_pooling2d_3 (MaxPooling  (None, 5, 5, 50)         0         \n 2D)                                                             \n                                                                 \n flatten_1 (Flatten)         (None, 1250)              0         \n                                                                 \n dropout_2 (Dropout)         (None, 1250)              0         \n                                                                 \n dense_3 (Dense)             (None, 128)               160128    \n                                                                 \n dropout_3 (Dropout)         (None, 128)               0         \n                                                                 \n dense_4 (Dense)             (None, 64)                8256      \n                                                                 \n dense_5 (Dense)             (None, 10)                650       \n                                                                 \n=================================================================\nTotal params: 175,224\nTrainable params: 175,224\nNon-trainable params: 0\n_________________________________________________________________\n\n\n\n\nFigure 3: Visualization of a CNN used to classify an image\n\n\n\nModel Results\nNow that we have determine
…
